annthyroid_model.pth (torch, 3295 bytes, 6 tensors)

hidden_layer_1.weight f4 [10, 21]
000000 e3 5a 11 be 65 98 b1 3d 49 cf 65 3f 7e 2e 15 3d
       -0.14194827 0.08671645 0.8976942 0.03642129
000010 fa bf 34 3c 78 e6 11 bd e8 b6 91 3d 20 60 98 3c
       0.011032099 -0.035620183 0.07114965 0.018600523
000020 b8 7b 12 3d 24 9b bc 3d ec 93 dd 3d 9c 48 0c 3c
       0.03576252 0.09209278 0.108192295 0.008562233
000030 06 c4 38 be 9c 9d 59 3d 91 20 91 be 7c 86 26 be
       -0.18043527 0.053128824 -0.2834516 -0.16262239
000040 c3 a7 af 41 18 88 58 bf ba 85 83 3c f6 51 30 3c
       21.956915 -0.8458266 0.016054977 0.0107617285
000050 5c 6d 89 be 5c 23 83 be f1 3d 72 3d 17 fb 84 bf
       -0.26841247 -0.25612915 0.059141103 -1.0389127
000060 a2 c6 63 3d 41 b5 d4 bc 15 66 d1 3d 29 fa e1 bd
       0.055609353 -0.025965335 0.10224549 -0.110340424
000070 da 68 f4 3c dd 6a 3e 3e 9a ed b3 3d 71 4f 13 be
       0.029835153 0.18595453 0.08785553 -0.14385773
000080 d0 bc 9b 3d 98 dd 49 be 71 ed 26 3c b2 ee 18 bd
       0.076043725 -0.19713438 0.010188446 -0.037337013
000090 af c2 d4 3d ca 42 af c1 18 2b 28 3f 11 01 8d 3e
       0.103886954 -21.907612 0.65690756 0.27539876
0000a0 1f d3 82 bc 1a f1 2d 3f 95 99 ef bd fc b7 fd 3c
       -0.015969811 0.67946017 -0.11699215 0.03097152
0000b0 c5 5d 69 bf d9 59 1e be fe 86 81 be 30 21 be 3d
       -0.91158706 -0.15463962 -0.25298303 0.09283674
0000c0 a5 ee 29 bd 07 5e 42 3e 98 e0 a2 bd 11 7f 7b bd
       -0.041487355 0.18981181 -0.07952994 -0.061400477
0000d0 42 5e d1 3d ea 01 ab 3c 9c b7 24 bd 0c aa 3e bd
       0.102230564 0.020874936 -0.040214166 -0.046548888
0000e0 28 f4 a9 3e c4 8e 08 be b1 96 b1 c1 19 dc 4f 3f
       0.3319409 -0.13335711 -22.19858 0.8119522
0000f0 13 42 eb 3e 8c 0a a0 3b ad ea e3 3e 26 cf ef 3d
       0.45948848 0.00488407 0.4451498 0.11709432
000100 ce 0e 8c 3d 63 c6 7c bf 64 a3 0b 3d e7 dd 00 be
       0.06838761 -0.98740214 0.03409137 -0.12584649
000110 5f 18 51 3d f6 09 cb 3d bc 96 00 be 8e 7b b4 3d
       0.051048633 0.09914009 -0.125575 0.08812629
000120 0b 65 10 3e b3 93 1d 3d 94 54 75 be 72 62 27 be
       0.14101045 0.038470935 -0.23958045 -0.16346148
000130 8a 16 f1 bc e0 97 df 3b 5e c6 84 bc de 04 ae c1
       -0.029429693 0.006823525 -0.01620787 -21.752377
000140 8f 0f 8a 3f f8 ca fb 3e 04 d8 c5 3d 93 6a 44 3f
       1.0785998 0.4917829 0.09660342 0.7672512
000150 65 18 85 be e9 ad 8a 3e 96 89 6c 3f f3 bf 95 bd
       -0.25995174 0.27085808 0.9239744 -0.07312002
000160 a7 35 c8 bd 6a 38 56 3e 70 04 4a be 40 c3 0b 3e
       -0.09775858 0.20919958 -0.19728255 0.136487
000170 e1 d0 bd 3d 00 78 3b be e0 5b 55 be 25 2a 4e 3d
       0.09268356 -0.18307495 -0.20835829 0.05033316
000180 f3 48 ab bd 2b 55 15 bc 79 71 67 be ba 30 ef 3d
       -0.08363523 -0.009114544 -0.2260188 0.11679216
000190 64 da ae 41 58 43 30 be a4 f6 c5 3e bf 99 ae 3d
       21.856636 -0.1721319 0.38664734 0.085254185
0001a0 3e 4f d5 3d 4a 63 08 3e 3b 14 97 be 43 b5 39 bf
       0.10415505 0.13319126 -0.29507622 -0.7254221
0001b0 f1 6b 38 3d 54 4c a5 bd 6c 34 13 be de 5e 55 bd
       0.045024816 -0.08071199 -0.14375466 -0.052092426
0001c0 38 05 57 bd 8a 72 a1 bd 4a 82 3b 3e 25 df 0b 3e
       -0.05249521 -0.07883175 0.1831142 0.13659342
0001d0 1c c3 5f 3c b9 19 78 3c 2c 51 02 bc 1b bb cf b8
       0.013657358 0.0151428515 -0.007953923 -9.90538e-05
0001e0 5f 1b 41 3d 60 f5 b4 c1 29 8a f9 3e 84 0c 72 3e
       0.047145244 -22.619812 0.4873822 0.23637587
0001f0 dc e1 0b be 16 4b e4 3e 1b 83 4f be de 53 05 3e
       -0.13660377 0.44588536 -0.20264857 0.13020274
000200 56 c8 31 bf a4 19 fe 3c 56 fb f4 bd 3e 2c 5d bd
       -0.69446313 0.031018086 -0.11962001 -0.05399727
000210 46 fc 01 3e 65 4f 80 be 45 f9 02 be b0 6c 8b 3d
       0.12693891 -0.25060573 -0.12790401 0.0680784
000220 10 95 67 3d 7c 8b ef 3c db ab bc bd 42 75 67 3e
       0.05653864 0.029241316 -0.09212466 0.22603324
000230 1a 8d f4 bc f7 c9 36 3d 65 85 b3 c1 7a a8 22 3f
       -0.029852439 0.044626202 -22.440134 0.63538325
000240 e2 c7 f7 3d 1d fa 07 be f8 11 dd 3e 79 1b 05 3e
       0.120986715 -0.13279004 0.43177772 0.12998761
000250 86 70 ba bc e7 8c 19 3f a2 8c 5f 3b c0 0c 29 be
       -0.022758733 0.59980625 0.0034110923 -0.1650877
000260 6c 2c f2 3d e1 ff 69 3d e2 df 79 3e 48 0a ff 3d
       0.11824879 0.05712879 0.24401811 0.12453133
000270 e8 64 c5 3d 2b 17 4a be b7 91 48 bd 94 9c dc 3d
       0.09638387 -0.197354 -0.04896709 0.107720524
000280 7c 34 67 bd b9 e7 b5 be 8d 94 c6 bd fc 07 b1 41
       -0.056446537 -0.35528353 -0.096963026 22.128899
000290 2a 6d 1d bf 3f 2b b9 3e 78 ab 7e 3e 95 7e be 3c
       -0.61494696 0.36165807 0.24870098 0.023253718
0002a0 68 17 91 be 4b e6 8f 3f 87 d1 9a bf ea 12 d9 3e
       -0.2833817 1.1242155 -1.2095193 0.42397243
0002b0 87 fe 2a bf 6d 41 97 3e ba 3b 02 3d 83 67 ee be
       -0.6679463 0.29542103 0.03179524 -0.46563348
0002c0 d1 4b cb bd 6a 31 23 bf 89 1b 01 bf 7a 65 3e be
       -0.0992657 -0.63747275 -0.5043264 -0.18593398
0002d0 da 70 d6 be 24 ec 88 3e 0a 6a 7b 3e 19 05 9b 3e
       -0.41882974 0.2674266 0.2455217 0.30277327
0002e0 cc b4 1d c1 e1 a1 27 bd 9e 89 aa bf ec cb 39 3f
       -9.85664 -0.040925864 -1.3323247 0.72576785
0002f0 f6 34 a9 bf d3 9b 31 be eb 08 67 3c c3 ec 77 3f
       -1.3219287 -0.17344598 0.014101247 0.96845645
000300 aa 92 9e 3d 02 aa b6 bc 4c b3 fc bb f2 78 7c be
       0.07742818 -0.022297863 -0.0077118035 -0.24655512
000310 48 0b 57 3e 6d 15 53 be cf 90 4d 3e 3e c6 30 3d
       0.21000397 -0.20613642 0.20074771 0.04315781
000320 63 c2 8d bd 6c 9c fd bd 6a 6f 46 be 7c 19 98 be
       -0.06921842 -0.12383351 -0.19378439 -0.29706943
000330 e7 01 4c 3e 0c 99 ad 41 17 25 09 bf c3 6f b7 3e
       0.199226 21.69973 -0.5357222 0.35827455
000340 2e 84 b7 3c a8 d3 20 be
       0.022401895 -0.1570574

hidden_layer_1.bias f4 [10]
000000 d9 59 93 be 80 4b e1 3e 2d 4c dc 3e aa 9d ca 3e
       -0.28779486 0.44002914 0.43026868 0.39573413
000010 2b f9 68 be 1f c9 97 3e c8 74 aa 3e ce ac ab be
       -0.227513 0.2964563 0.33292222 -0.33530277
000020 aa 1f 10 3e cc 88 3d be
       0.14074579 -0.18509215

hidden_layer_2.weight f4 [2, 10]
000000 ed 27 02 40 20 a9 2f c0 af cc 30 c0 bb 02 1d c0
       2.0336869 -2.7446976 -2.762493 -2.4532917
000010 0a 8f 39 40 b1 c1 27 c0 c0 e3 2c c0 ad db dc 3f
       2.8993554 -2.621197 -2.7014008 1.725454
000020 bc 50 f2 bf 40 10 e8 3f 07 e5 1d c0 c8 10 3a 40
       -1.8930888 1.8129959 -2.4671037 2.9072742
000030 a2 58 2c 40 3a 2d 21 40 31 a8 1a c0 0b c8 1d 40
       2.6929097 2.5183854 -2.4165156 2.4653347
000040 68 48 27 40 60 d1 f9 bf 53 2a bb 3f d9 0a 09 c0
       2.6137943 -1.9517021 1.4622291 -2.141287

hidden_layer_2.bias f4 [2]
000000 0e 8c 9d 3e c7 30 45 3d
       0.30770916 0.04814222

output_layer.weight f4 [2, 2]
000000 7c 5d 01 41 29 07 13 c1 07 c0 03 c1 64 ad 10 41
       8.085323 -9.189248 -8.234382 9.042332

output_layer.bias f4 [2]
000000 da 7e 1f bf 53 3e 45 3f
       -0.62302935 0.77048224
