annthyroid_model2.pth (torch, 3303 bytes, 5 tensors)

hidden_layer_1.weight f4 [10, 21]
000000 e2 a6 3d 3e 2d f9 8e 3d c8 01 4b bf ac 90 70 3c
       0.18520692 0.0698112 -0.7929959 0.01468293
000010 c7 a0 11 be 44 7c 51 be 56 1a 81 bd 70 b9 9e be
       -0.14221488 -0.2045756 -0.06303851 -0.31000853
000020 cf f1 c9 bc 14 1b 62 bd 0d ab 41 3e fe 98 f1 3d
       -0.024651436 -0.055201605 0.18912907 0.11796759
000030 2b 86 fb bc c1 c2 23 bd f8 a2 b4 3d 56 19 af bc
       -0.030703625 -0.039980654 0.08820146 -0.021374386
000040 35 64 b4 c1 6f 1c 16 3f 4f 92 0f 3e e6 42 32 3d
       -22.54893 0.58637136 0.14020656 0.04352083
000050 81 9c bc 3e f1 6e 5a 3e ff 8e 9a 3d 32 b3 43 3f
       0.36838153 0.21331383 0.075468056 0.76445305
000060 9b c2 d0 bc 0c 08 1e 3e 00 8b 03 3d 37 aa 66 bd
       -0.02548342 0.15432757 0.032114983 -0.056314673
000070 fe 33 f7 3d 70 18 9a 3c a0 d6 9f bd 3c 7a 6d be
       0.120704636 0.01881048 -0.07804608 -0.2319116
000080 00 d1 c6 3d f7 09 19 3d 35 48 33 be 9e 19 5c 3c
       0.09707832 0.03736302 -0.17508014 0.013433842
000090 eb 2c 14 be f8 db b5 41 0a 1c c2 be 37 67 c7 3e
       -0.1447026 22.732407 -0.37912017 0.38945934
0000a0 43 f3 67 bd 0f 46 51 3e 9f ad 4c be 2a f6 62 3b
       -0.056628477 0.20436881 -0.19988106 0.0034631588
0000b0 54 44 56 3f ba 31 fe bc de d1 6a 3d 1c 2c a6 3d
       0.8369801 -0.03102957 0.05732905 0.08113882
0000c0 d9 43 40 bd 1a b2 8d 3d dc 9e 1e be 66 75 00 3e
       -0.046939705 0.06918736 -0.15490288 0.12544784
0000d0 59 00 c0 3c dc 78 a0 3c f6 30 9a 3d 74 40 9e bc
       0.023437666 0.01958888 0.0752887 -0.019317843
0000e0 56 d1 08 3d 16 a0 00 be b5 56 b7 41 e4 37 25 bf
       0.033402763 -0.12561068 22.917337 -0.6453841
0000f0 99 84 93 3c 1e 22 3f 3e 5c c7 bc 3d b3 d9 fa 3d
       0.018007563 0.18665358 0.09217712 0.12248554
000100 d6 f7 c7 3d 00 c8 68 bf d1 41 0f bc df 4e 5f be
       0.09764068 -0.90930176 -0.008743719 -0.2180743
000110 a6 d8 e6 bd 74 b7 53 3e 58 1e d7 3d 2a c7 24 be
       -0.11271791 0.2067545 0.105038345 -0.160916
000120 9d f2 00 be eb 64 27 3e 34 dd 9f 3c b8 9a 60 bd
       -0.1259255 0.16347091 0.019514658 -0.05483505
000130 0c 5f a8 bd a1 21 91 bc f0 b6 53 3d 1c aa ae c1
       -0.08221254 -0.01771623 0.051688135 -21.833061
000140 90 a6 4a 3f 6a 71 04 3f e3 81 d4 3c b3 94 20 3f
       0.79160404 0.51735556 0.025940841 0.62726897
000150 95 06 1e 3e 82 e3 51 3e 83 5e 77 3f 3b 0d d3 3d
       0.15432198 0.20496944 0.9662859 0.10305258
000160 6f eb a6 3c 52 93 ef bd d1 ad 02 3e 65 31 a1 3c
       0.020375935 -0.11698021 0.12761618 0.019676873
000170 43 29 e1 3d 09 28 54 3c a9 cc 53 3d 65 4c 24 be
       0.10994198 0.012948998 0.05170885 -0.16044767
000180 0f 46 82 bd 50 a3 ca bd 64 92 bb be 49 53 1f bd
       -0.06361019 -0.09894431 -0.36635125 -0.038897786
000190 5a 37 b3 41 eb 32 0c be e5 5d f1 3d 1b 86 a6 3c
       22.402027 -0.13691299 0.11785487 0.020327618
0001a0 85 4a 97 bd c0 51 0e 3e 87 60 82 3d 90 17 2c bf
       -0.0738726 0.13898373 0.063660674 -0.67223454
0001b0 45 25 2a bd 89 6b 75 be 26 93 c9 39 53 11 05 be
       -0.04153945 -0.23966803 0.00038447342 -0.1299489
0001c0 85 fe 11 be d3 6e e4 3d 2c be 44 3e c1 d1 7d 3d
       -0.14257248 0.111539505 0.1921317 0.061967615
0001d0 9e 2d 66 3d 36 04 63 bd 61 75 14 3e 27 95 aa 3d
       0.056195848 -0.055423938 0.14497901 0.0832923
0001e0 9f 2a 7e be d5 38 bb c1 b5 9e 26 3f d3 10 dd 3d
       -0.24820946 -23.40275 0.6508592 0.107942246
0001f0 6b c6 28 be eb 5f 4f 3e 99 be 30 be cc d9 97 bc
       -0.1648194 0.20251434 -0.17260207 -0.01853647
000200 74 08 87 bf 14 99 fa 3d fe 2b 52 bc f4 bb 91 3d
       -1.0549455 0.122362286 -0.012827871 0.07115927
000210 f5 89 9c bd 84 45 60 be 92 42 1f 3e d7 3c 83 3d
       -0.07643501 -0.21901518 0.15552738 0.06408089
000220 a0 ac c5 bd d4 cb 10 be 92 b4 57 3d e5 70 46 3e
       -0.09652066 -0.14140254 0.05266244 0.19379003
000230 6c b6 33 3e 58 b0 07 be 24 48 b2 c1 15 62 14 3f
       0.17550057 -0.13250864 -22.285225 0.5796216
000240 7f 76 ad 3e 02 be fe 3d 41 b9 dd 3d a8 97 28 be
       0.33879468 0.12438585 0.1082635 -0.16464102
000250 9c 34 d1 bd 92 39 84 bf 04 94 31 be 39 ce 03 be
       -0.102151126 -1.0330069 -0.1734162 -0.12871636
000260 a1 b0 d5 3d 3c 77 a3 3d 9b f6 f1 3d e3 ae 19 3b
       0.1043408 0.079817265 0.118146144 0.0023450188
000270 bd d4 61 3e 05 10 33 3d c1 4d a8 bc 3e bc 9a bd
       0.2205381 0.04371645 -0.020544888 -0.075554356
000280 ab 0c 3c 3c a2 60 aa 3e e9 18 18 be 85 b6 b4 c1
       0.01147763 0.3327685 -0.14853252 -22.58912
000290 39 9b 9e 3e 02 d2 6e 3e ce 42 e8 bd 69 eb 58 3e
       0.309778 0.23322299 -0.11340867 0.21183552
0002a0 a1 4f e5 3d f1 f4 6d bc 95 b8 8a bf 8a 0a 1b 3d
       0.11196829 -0.014523731 -1.083758 0.037851848
0002b0 42 44 89 3d 16 a5 80 bb c2 75 4a 3e 3b 08 a0 be
       0.06702472 -0.00392593 0.19771484 -0.3125628
0002c0 ef 4b 09 3d 85 72 d0 3d 2e 1c dc bd 3c e6 fa bc
       0.03351968 0.10178093 -0.10747562 -0.030627362
0002d0 2f ec 64 bd f2 c5 97 3b af 77 71 3e 59 62 ce 3d
       -0.055889305 0.004631751 0.23580812 0.10077352
0002e0 9f 25 b3 c1 51 63 0a 3f d9 29 93 3e b7 da 69 be
       -22.39337 0.54057795 0.28742865 -0.2283734
0002f0 33 b7 ac 3e b8 9d 16 3c 7b fa 84 3e 86 b7 85 bf
       0.3373352 0.0091928765 0.2597235 -1.0446632
000300 6d dc 71 3e f3 15 e3 bd 46 c7 7d bd 93 ee 82 3e
       0.23619242 -0.11088171 -0.06195762 0.25572643
000310 e7 a5 06 be 16 e5 86 be 29 67 84 be d0 00 f6 bd
       -0.13149224 -0.26346654 -0.25859955 -0.12011874
000320 6e e3 c3 bd c5 40 7e be 41 0f eb bd f9 cd b4 3e
       -0.09564863 -0.24829395 -0.11477519 0.35313395
000330 9b eb bf 3d 34 e6 af c1 3e 3b 98 3f a2 51 dc 3e
       0.0937111 -21.987404 1.1893079 0.4303103
000340 48 e8 d1 3d a6 21 0a 3f
       0.10249382 0.53957593

hidden_layer_1.bias f4 [10]
000000 ea c3 fa 3e 7e e2 ae be 05 ac 00 bf 95 39 0f 3e
       0.48977596 -0.34157175 -0.5026248 0.1398681
000010 c8 f4 e7 be 35 fa 4a 3e 3d 59 c2 3e 44 81 a8 3e
       -0.4530394 0.19822009 0.37958708 0.32911122
000020 c9 cc 8b 3e 25 8d d2 3e
       0.27304676 0.4112331

hidden_layer_2.weight f4 [2, 10]
000000 1b ff fd 3f 04 5a 2e c0 45 a7 3b c0 8c 5b ee 3f
       1.9843477 -2.724244 -2.9320843 1.8621688
000010 c0 21 3b c0 18 46 12 40 04 f5 20 40 3e 6a 24 40
       -2.923935 2.2855282 2.5149546 2.5689845
000020 0a d3 22 40 47 3f 22 40 fa 68 17 40 6c 20 37 c0
       2.5441308 2.5351121 2.3657823 -2.8613539
000030 c6 73 32 c0 1e 3b f1 3f 3c e2 45 c0 62 69 20 40
       -2.7883162 1.8846166 -3.0919333 2.506432
000040 21 dd 19 40 05 32 1f 40 a7 a8 15 40 d0 d8 0f 40
       2.4041216 2.487428 2.3384187 2.2476082

hidden_layer_2.bias f4 [2]
000000 ed 8d 43 bf ad dc 24 bf
       -0.76388437 -0.64399225

output_layer.weight f4 [1, 2]
000000 26 ff 07 41 b4 3c 01 41
       8.499792 8.07732
