magic_model.pth (torch, 7931 bytes, 13 tensors)

hidden_layer_1.weight f4 [20, 10]
00000000: 8014 3a3f 5941 1b40 ce80 81bf 2a2e 6dbf
00000010: 38e7 20bf a61b 09be b69c c23d be75 be3e
00000020: a3de 083f f34d 933f 2596 0840 c398 5d40
00000030: f793 953d bcca 0dbf 7c81 1bbf ef89 40bf
00000040: 11ef 82bf c5bb a1be e31d 4540 4b36 60bf
00000050: 6310 983e 7146 8740 cbe2 45bf 485d 873f
00000060: d752 c83d 7b56 e03d 48b7 e2bc 8898 053e
00000070: 260b c040 1015 cfbf a211 37c0 550d ba40
00000080: b486 97c0 c0f4 b63e 91e7 1e3f dbd2 09bf
00000090: 959e 9bbf 1945 c6be 1d98 4840 7483 ffbf
000000a0: f6c3 9340 47f9 35c0 ddf6 8c40 d0e5 a93e
000000b0: ca7e 283d 94b5 e6be 1b04 e6be e9a0 6dbe
000000c0: ed4d 203f 5ff0 863f 3d04 2c40 4c58 4bbf
000000d0: 3c2d c23f 9a50 753f 076d 6a3f 5745 49be
000000e0: 398b 32bf 4937 16bf 0af9 ce3f 7bc3 4d3e
000000f0: 77ee 483f 0997 1140 a1a0 56be 79e1 ff3f
00000100: ad66 eb3f 5fdf 0bbf e546 5abf 6b10 bd3c
00000110: 767a 3340 1fd9 16bf 3430 0cc0 afce 123f
00000120: e2e7 02c0 d1eb 18bf 65e5 2fbe 98c5 993c
00000130: 9466 e43e 6a2a cd3d 3602 46bf 757d a9be
00000140: 88b9 5f40 4438 8fbf eb11 743f 9b32 893d
00000150: 93b9 8d3e b19c 71bf f1a7 8fbf 7c78 17bf
00000160: 0b2a 1040 3442 66be a909 7840 12ab 8fbf
00000170: d009 843f 7adb 91be b736 4f3e 19a2 85bf
00000180: 1dfe a8bf 9df9 23bf 4423 1640 e32d df3e
00000190: 467f 653f 5f1d 4840 a98a b73d 43c0 c63f
000001a0: b9e6 913f 8c03 6bbe c7eb 5fbe 37af 5dbe
000001b0: 523f 8340 6fdd d6bf 2f4e 0040 5ee6 813f
000001c0: 6a21 af3f 7b15 913f dfc1 753f b64c cabd
000001d0: b9f4 78bf c283 01bf 62fe 1740 3c01 16bf
000001e0: a684 1bc0 d941 113f 58f6 a4bf 44e9 c03c
000001f0: 8662 3fbe 9656 cd3e 430c 523f 1a47 2a3e
00000200: d411 9bbf 1ed8 8e3c 37a5 0a40 6595 483f
00000210: d4eb bd3f e8c2 ff3e 3c37 2b3f 833e e3be
00000220: 9ebd 68bf 9283 09be 68b0 2340 3fcb 3fbf
00000230: bfa4 e33f 9c4e 2540 5104 e1be b3b6 0240
00000240: bc13 ef3f eb61 4abe 885e 47bf f8f4 44be
00000250: 6037 2a40 4dfd 15bf 9627 b23f 5eb7 a73e
00000260: 1552 573f d709 ac3f c971 533f 264f 35be
00000270: 2060 8fbf 655d 92be ddc4 1340 2506 02bf
00000280: 741c 1340 6d0f 6140 273f 8b3e 4636 c6be
00000290: 1d22 2fbf 8bc7 50bf 1d8b 61bf 4e21 edbe
000002a0: 9a24 6240 5e20 d5be 59e5 9d3f 1a24 c640
000002b0: ed2a d5bf a18d 4bbd 9d93 253f baad a1be
000002c0: e10b cdbe edc8 93be b2aa a640 9b9d 9bbf
000002d0: 459d 3d40 ca23 e03f 1330 62bf 64ab 3c40
000002e0: 072b 2d40 6908 25bf 0944 89bf 3279 9ebe
000002f0: 0cc2 a73f 2b2b 883f 4585 5abe 5f25 f63f
00000300: 4953 b0be bb51 d83f b337 ac3f 08d7 efbe
00000310: 65a8 c3be 78e6 13bf 6063 6e40 7195 d2bf
0.7268753 2.4258635 -1.0117433 -0.92648566 -0.6285281 -0.13389453 0.095025465 0.37199205
0.53464717 1.1508163 2.134164 3.4624488 0.07303613 -0.55387473 -0.6074445 -0.7521047
-1.0229207 -0.3158857 3.0799491 -0.87582844 0.29700002 4.227349 -0.77299184 1.0575342
0.097814254 0.10953995 -0.027675286 0.13046467 6.001361 -1.6178303 -2.8604512 5.8141274
-4.7351933 0.35733604 0.6207209 -0.53837365 -1.215777 -0.38724592 3.1342843 -1.9961991
4.617671 -2.8433397 4.4051347 0.33183146 0.04113654 -0.45060408 -0.44925007 -0.23205914
0.62618905 1.0542105 2.6877587 -0.79431605 1.5170054 0.95826113 0.9157261 -0.19655357
-0.69743687 -0.5867811 1.6169751 0.20094101 0.7848887 2.2748435 -0.20959713 1.9990684
1.8390709 -0.5463771 -0.85264426 0.023079118 2.8043494 -0.5892505 -2.190442 0.57346624
-2.045403 -0.5973483 -0.17177351 0.018770978 0.4460951 0.100178555 -0.77347124 -0.3310353
3.495699 -1.1189046 0.9533984 0.06699105 0.27680644 -0.9437972 -1.1223127 -0.5916822
2.252566 -0.22486192 3.8755896 -1.1224082 1.0315495 -0.2848776 0.20235716 -1.0440093
-1.3202549 -0.64052755 2.3459024 0.43589696 0.8964733 3.1267927 0.08961994 1.5527424
1.1398536 -0.22950572 -0.21867286 -0.2164887 4.1014795 -1.6786326 2.004772 1.0148427
1.3682072 1.133468 0.9599895 -0.09877913 -0.9724842 -0.5059167 2.3749013 -0.58595634
-2.4299712 0.567411 -1.2887678 0.02354873 -0.18689927 0.40105122 0.8204996 0.16628686
-1.2114816 0.017437037 2.166334 0.7835296 1.4837594 0.4995339 0.66881156 -0.4438363
-0.9091433 -0.13429096 2.557642 -0.74919504 1.7784652 2.582923 -0.43948606 2.042401
1.8677897 -0.19763915 -0.7787862 -0.19234073 2.6596298 -0.5858963 1.3918331 0.32757086
0.8410962 1.3440503 0.825955 -0.17705974 -1.120121 -0.2858688 2.3088906 -0.50790626
2.2986116 3.5165665 0.2719662 -0.38713282 -0.6841143 -0.8155448 -0.88102895 -0.46314472
3.533484 -0.41626257 1.2335616 6.191907 -1.6653725 -0.049695615 0.64678365 -0.31577855
-0.40048125 -0.28864232 5.208337 -1.2157472 2.962724 1.7510922 -0.88354605 2.9479609
2.7057512 -0.6446596 -1.0723888 -0.3095184 1.3106093 1.0638174 -0.21339901 1.9230155
-0.34438542 1.6899942 1.3454498 -0.46843743 -0.38214412 -0.5777354 3.7248154 -1.6451856

hidden_layer_1.bias f4 [20]
00000000: 0b3f 533f 184d 18bf 13e5 0ebf c3a0 2cbe
00000010: 23ad 1bbf fe1b 86bf 0477 7abf 2eb4 df3e
00000020: 27e9 7dbf 0227 76bf 291d 44bf 092b 77bf
00000030: d7aa 2c3f 42cc 9dbf b7d7 7ebe 2ade 89bf
00000040: f432 36bf e375 8d3d f29f 20bf 5aea 98bf
0.8251807 -0.59492636 -0.5581829 -0.168582 -0.6081106 -1.0477293 -0.97837853 0.43692154
-0.9918389 -0.9615327 -0.76606995 -0.9655004 0.6744818 -1.232796 -0.24886976 -1.0770924
-0.711715 0.06907251 -0.6274406 -1.1946518

hidden_layer_2.weight f4 [10, 20]
00000000: 0997 f83e d6b0 9a3d c6db 2d3e 431a 2040
00000010: 5d1e a4bf 53a6 0fbf 3f97 b7be 0bff 913f
00000020: 616c a7be 5cf3 ccbe 2a2b 56be 022c fbbe
00000030: 0682 923f 5b8d 84be cc88 dbbe b9d5 b5be
00000040: ec4b 6b3d 4a5f 053f 7466 6abf 24db 9dbc
00000050: da4d 4fbe 2869 7e3f 1d90 1f40 0fda 4f40
00000060: f6fc a6bf a079 2fbf 60eb 293f 5db4 62be
00000070: ac0c 21bf 4a70 e3be 16b2 b63f 4762 9f3e
00000080: ea44 69bf f08b dd3e e541 3c3f 33d5 7e3e
00000090: 6581 993f ad19 1d40 4a45 653f 9bb0 d23f
000000a0: 46f0 97be 9593 843f 4d2d 2640 91cd 6340
000000b0: 43dd b3bf 636c 37bf efd6 3a3f eb60 d6be
000000c0: c00c dabe c2b1 29bf f6ee ce3f 3826 e23e
000000d0: 7d93 4fbf 9a60 003f 8fbc 3b3f 0148 9cbc
000000e0: 1a84 ab3f 635e 2340 40b3 173f 7cc6 d13f
000000f0: 69ac 25bf 36f7 a93f 963b 2140 fc1c 6440
00000100: 4065 89bf 79b4 0abf 77cd 503f 4751 b1be
00000110: 6cbf e4be 7edb 2fbf 0970 de3f 09e5 0f3e
00000120: 6393 55bf fed1 3e3e 0a1f 4b3f beff 2ebe
00000130: 1e80 8e3f c2d2 2440 e532 2d3f 5f7b 9c3f
00000140: 1d5a dfbe b412 8a3f cf21 2640 7f56 6b40
00000150: cb50 adbf 82ef babe ff72 423f 88ee 1abf
00000160: e949 44be dfd5 26bf 6555 d93f 24ea 0c3f
00000170: bf51 6abf 608c 5c3e 739b 7e3f a8ca 233e
00000180: fa46 833f 3a94 2c40 b6f5 2a3f 9f27 b93f
00000190: dd2d 59bf 391d 9e3d 6038 783e 8ae1 fabf
000001a0: e4b2 f33e e1a7 a73d c945 ea3e e429 d1bf
000001b0: 0802 693e db42 1fbc 44a0 933e 453d 1f3f
000001c0: bea3 a0bf 021c 003f 4602 213d 6242 fa3e
000001d0: 347c c5bc 6a0a 63be 28a7 f43e 4d68 203e
000001e0: 30cd 493f 2fdd a0bd d29e 4c3d dc82 e53f
000001f0: 7a12 58bf 2539 10be 7686 29be f348 a33f
00000200: 3b3e 1dbe 50dd b9be d0a6 73be 6d95 aabe
00000210: 6f44 833f 8f4c eabe d4ec e6bd fee3 0abe
00000220: abce 8abe 8977 bd3a b5c2 3ebf 486b 82be
00000230: 654b b8be ca42 983f 8ef2 1240 a63f 6840
00000240: 4634 b3bf 179a a7be c367 413f c526 8dbe
00000250: 6d10 04bf 95d6 72be 73ad d43f b537 8d3e
00000260: c389 60bf ed50 493e 9c2d 803f 0337 2a3e
00000270: 0236 9a3f 2a47 1b40 d494 6f3f 2a1e d03f
00000280: d6d5 70bf 1ddf ae3d 9ec5 ec3d 5222 febf
00000290: 614b 333f d6aa 9e3e 57c7 e53e 150a aebf
000002a0: 4eaf 423c 4d61 bd3d eddc b43e 67ed c53e
000002b0: 600d bdbf b2d6 d73e 2e13 353e 2020 893e
000002c0: e1e7 2d3e c5a8 b1be 54ff 0e3f 0c7d be3e
000002d0: 1939 7bbe 8784 8d3f 0566 2140 d242 6440
000002e0: a7e9 afbf 1342 2ebf 419c 183f bf7a d6bd
000002f0: 8023 acbe 7579 3fbf b4be bc3f 77d8 b13e
00000300: 26e4 4abf 6b11 dc3e 79e2 423f d274 52bc
00000310: 6651 a63f 6f4a 2240 0223 293f 361a cc3f
0.4855273 0.0755326 0.16978368 2.501603 -1.2821766 -0.56113166 -0.3585758 1.1405958
-0.32699874 -0.40029418 -0.20914903 -0.49057013 1.144593 -0.25889096 -0.42877805 -0.3551462
0.05744545 0.52098525 -0.9156258 -0.019269533 -0.20244542 0.99379206 2.493171 3.2476842
-1.3045948 -0.6854496 0.6637478 -0.22139116 -0.6290996 -0.44421607 1.4273098 0.31129667
-0.9112078 0.43270826 0.7353805 0.24886017 1.1992613 2.4546921 0.8955885 1.6460146
-0.29675502 1.0357538 2.596515 3.5594218 -1.4051899 -0.7164976 0.7298421 -0.41870818
-0.42587852 -0.6628686 1.6166675 0.44169784 -0.81084424 0.501474 0.7333459 -0.019077303
1.3399689 2.552636 0.5925789 1.6388698 -0.647162 1.3278568 2.5192618 3.564269
-1.0734024 -0.5418163 0.81563514 -0.34632322 -0.44677293 -0.68694293 1.737794 0.14052214
-0.8342802 0.18634793 0.79344237 -0.17089745 1.1132848 2.5753636 0.67655784 1.222515
-0.43623438 1.0786958 2.5958135 3.6771543 -1.3540281 -0.36510855 0.7595672 -0.6052022
-0.1916882 -0.6517009 1.6979185 0.5504477 -0.91530985 0.21537924 0.99455947 0.15995276
1.0256035 2.696547 0.66781175 1.4465216 -0.84835607 0.077204175 0.24240255 -1.9600079
0.4759742 0.08186317 0.45756367 -1.6340909 0.22754681 -0.009720529 0.2883321 0.62202865
-1.254997 0.50042737 0.03930881 0.4887877 -0.024107076 -0.22171941 0.4778378 0.15664788
0.78828716 -0.078546874 0.04995615 1.793056 -0.84403193 -0.14084299 -0.16555199 1.2756637
-0.1535577 -0.3630166 -0.23794103 -0.33317128 1.0255259 -0.45761535 -0.1127564 -0.13563535
-0.271108 0.001445518 -0.7451585 -0.25472474 -0.3599502 1.1895382 2.2960544 3.6288848
-1.4000328 -0.3273475 0.7554895 -0.2756864 -0.51587564 -0.23714669 1.6615433 0.27581564
-0.8771021 0.19659777 1.0013919 0.16622548 1.2047732 2.4262185 0.9358647 1.6259205
-0.9407629 0.08538649 0.1156113 -1.9854224 0.70036894 0.30989712 0.44878647 -1.3596827
0.011882616 0.09247074 0.35324803 0.38657686 -1.4769707 0.42155987 0.17683098 0.26782322
0.16982986 -0.34699073 0.5585835 0.37204778 -0.245335 1.1056069 2.5218518 3.5665784
-1.374318 -0.6806957 0.59613425 -0.10472631 -0.33620834 -0.74794704 1.4745698 0.34735462
-0.79254377 0.4298204 0.7612682 -0.012845235 1.2993591 2.535793 0.6606904 1.5945499

hidden_layer_2.bias f4 [10]
00000000: a9d4 123f b055 9bbf 21e4 a3bf 267d 7cbf
00000010: 78b9 81bf 442d 88bf a4c6 433f a212 a2bf
00000020: fb1d 5ebf 9458 a7bf
0.57355744 -1.2135525 -1.2803994 -0.9862846 -1.0134726 -1.0638814 0.76474977 -1.2661936
-0.86764497 -1.3073907

multiple_layers.0.weight f4 [10, 10]
00000000: d5ff e1bf d0ad 2b3f 5aa9 193f 188a ce3e
00000010: 8510 f83e 45c7 1d3f 4901 b0bf cfb8 a43e
00000020: 6e67 003e 8ea8 c93e a13e d0bf bcfe 3f3e
00000030: 2e29 b53e 4255 4f3e f1a5 303f 0551 c23e
00000040: 325d bdbf 144d 783e 1bbc 133f 6e95 1e3f
00000050: 2c8a 823f f0fb efbe 4ac6 40bf 43af 16bf
00000060: 27a6 babe 6ae1 ecbe fc32 9c3f 3274 08bf
00000070: a035 d7be bb95 9cbe 142e f8bf 59f2 293e
00000080: c52e ef3e 924f b73e bf43 103d 55b8 c63e
00000090: bb33 babf f41e 353f e8d2 463f cbaf c73e
000000a0: aad2 e0bf 4281 b23e 1746 2d3f edf8 7e3e
000000b0: 1d51 6f3d 7dcb 223e 0ec5 b3bf 355c e93e
000000c0: 19bb fc3e 50ac e83d a39e c0bf c4c6 c03e
000000d0: fa02 983e b597 523e 21ad ba3b e8f6 3e3f
000000e0: 532b 93bf 9b7c 863e b72b 4b3f a59a edbb
000000f0: 6a13 913f 93f8 91bd f492 21bf d4cb 15be
00000100: b2e7 b5be ab49 aabe c034 d13f 308b 08bf
00000110: 5e16 07bf 01f6 e8be 45ed c4bf bc52 493d
00000120: 79f6 d13e d64f c03e 1d72 2d3e 1408 223f
00000130: 724b b3bf d6da 273f a006 fb3e 44bc 323d
00000140: 1eea c6bf 211a ca3e 2582 273f e839 8d3e
00000150: 48c5 8f3e d3c5 283f 4e69 dabf 1a8a 0e3e
00000160: 3612 023f 5c32 133e bd4e d4bf aee2 853e
00000170: 0154 eb3e ef1a 803d 0497 963e 1cae 533f
00000180: cddb 9abf a027 423e e429 273f d195 1c3e
-1.7656199 0.6706209 0.60024035 0.40339732 0.48450103 0.61632186 -1.3750392 0.32172248
0.12539455 0.3938641 -1.6269113 0.18749517 0.3538298 0.20247367 0.69003206 0.37952438
-1.4794066 0.24248153 0.577089 0.6194676 1.0198417 -0.468719 -0.75302565 -0.5886118
-0.3645489 -0.46265727 1.2203059 -0.533023 -0.420331 -0.30582985 -1.9389062 0.16596355
0.4671537 0.35802895 0.035220858 0.3881251 -1.4547037 0.70750356 0.7766557 0.39001307
-1.756429 0.3486424 0.67685074 0.24899645 0.058426965 0.15897937 -1.4044511 0.4557816
0.49361494 0.11360991 -1.5048412 0.37651646 0.2968977 0.20565684 0.005696908 0.745955
-1.1497597 0.2626694 0.7936358 -0.007251101 1.133405 -0.0712749 -0.6311486 -0.14628536
-0.35528332 -0.3325933 1.6344223 -0.53337383 -0.52768505 -0.45500186 -1.5384909 0.049151167
0.41008356 0.3756091 0.16938062 0.63293576 -1.4007399 0.6556829 0.49028492 0.043636575
-1.5540197 0.3947306 0.6543296 0.2758324 0.280802 0.65926856 -1.7063386 0.13919869
0.5080904 0.1437468 -1.6586529 0.26149505 0.45962527 0.06255137 0.2941209 0.82687545
-1.2098328 0.18960428 0.65298295 0.15291525

multiple_layers.0.bias f4 [10]
00000000: 573d 82bf 341c 8bbf c9fe 813f feab 66bf
00000010: 5207 45bf fee6 3bbf faab 1a3f 0c61 6bbf
00000020: 7f03 56bf 4060 61bf
-1.017497 -1.0867982 1.0155879 -0.9010619 -0.76964295 -0.7339934 0.60418665 -0.91944957
-0.83599085 -0.8803749

multiple_layers.2.weight f4 [10, 10]
00000000: 3ab8 293f 7917 0f3f c64e 4ebf 69a2 1e3f
00000010: 021a e93e 8a45 a03e 47ad 8fbf 1633 233e
00000020: 2b44 9d3e 72bb 2d3f d51f 41bf ca38 03bf
00000030: 006b aa3f 6335 31bf 1fb5 f3be 63d2 37bf
00000040: 50e9 473f 7658 99be 95da 1cbf b7c0 c7bd
00000050: 12cb 3fbf 6083 b0be 47a6 943f 1171 10bf
00000060: e001 d1bd da4d 0fbf e44b 7e3f 3cdd 24bf
00000070: 2a6e 29bf c70b 16bf 4d9a 4e3f 124e 8e3e
00000080: 71ff 3bbf 0476 473f fbdb 3a3e 98ce 983e
00000090: e92a 86bf 02a9 1a3f a164 003f f528 7a3e
000000a0: 3ae8 4fbf a388 80be 1402 153f 39d0 1fbf
000000b0: e689 20bf a361 a7be f10e 673f f7ad c2be
000000c0: 2a52 44bf 0e67 26bf 08a0 64bf 54f7 2abf
000000d0: ae68 a03f b670 afbe 9d6e 8abe d500 10bf
000000e0: 055f 8e3f f181 ddbe 86ec 14bf 7ded 04bf
000000f0: ab8b 30bf 06aa 15bf 2697 8a3f b220 0fbf
00000100: 7528 1cbf 2e0a 10bf 286f 923f ccf1 c7be
00000110: 4956 85be 9816 c3be d429 8dbe 19b4 b9be
00000120: 1e8b 643f 394d 14bf 460a 3fbf aba5 39bf
00000130: c72e 463f 2234 3abf 875a 9bbe 7e46 5bbf
00000140: 7fa2 cd3e 42d3 383e 44f9 b0bf 620b 203f
00000150: 1ea6 0a3f a150 4bbd 0be6 98bf 3c9a b73e
00000160: 958f 8f3e 0dd1 183f 1aef 2dbf f9ae cabe
00000170: d634 5a3f dfd9 e7be f8b2 ffbe a791 1dbf
00000180: fe6c ad3f 770a 13bf 172e 24bf 6039 32be
0.6629673 0.5589519 -0.8058895 0.6196657 0.45527655 0.31303054 -1.1224755 0.15937456
0.3071607 0.67864144 -0.75439197 -0.5125853 1.3313904 -0.69222087 -0.47599122 -0.718054
0.7809038 -0.29950303 -0.6127103 -0.09753554 -0.74919236 -0.3447523 1.1613244 -0.56422526
-0.10205436 -0.5597817 0.9933455 -0.64400077 -0.6618372 -0.5861172 0.80704194 0.27793938
-0.7343665 0.7791445 0.18247978 0.2984512 -1.0481845 0.60414135 0.5015355 0.24429686
-0.81213725 -0.25104246 0.58206296 -0.624271 -0.62710416 -0.32691678 0.90257174 -0.3802335
-0.7668787 -0.65001 -0.8930669 -0.6678364 1.2531946 -0.3426568 -0.27037516 -0.5625127
1.1122748 -0.432632 -0.58173406 -0.5192488 -0.68963116 -0.5846256 1.0827377 -0.55909264
-0.6099923 -0.5626553 1.1440172 -0.39051664 -0.26042393 -0.38103175 -0.27570975 -0.36270216
0.89274776 -0.5793033 -0.7462505 -0.72518414 0.77415127 -0.727358 -0.30342504 -0.8565444
0.40163037 0.18049338 -1.382607 0.6251737 0.54159725 -0.04963744 -1.1945204 0.3585986
0.28039232 0.59693986 -0.67942965 -0.3958662 0.8523687 -0.4528341 -0.4994123 -0.6155037
1.3548887 -0.57437843 -0.6413283 -0.174047

multiple_layers.2.bias f4 [10]
00000000: 7864 0fbf 2a20 ac3e 1d0c c63e dac7 b8bd
00000010: c3f2 553e fd17 8a3e 0def 883e ea24 1f3f
00000020: dd58 01be 2049 053e
-0.5601268 0.3361829 0.38681117 -0.09022494 0.20893387 0.26971427 0.2674488 0.621657
-0.12631555 0.13016176

multiple_layers.4.weight f4 [10, 10]
00000000: cea6 a83e 513c 34bf 5fcb 4fbf dba6 4c3e
00000010: 9534 35bf 5bf0 5ebf 77f6 ebbe 05f9 72bf
00000020: 1afe 063f 8d4b 34bf 45f8 83bf a938 be3e
00000030: 7f1b 5e3f fe98 dbbe 9bba fa3e 004f 753f
00000040: 6483 7e3f 4b58 953e 24a8 28bf 9b37 313f
00000050: 07ed 52bf cc18 e83e 2c00 513f 3b2d 53bf
00000060: bb1f 9a3e f9a0 3f3f e883 713f d3ee 863e
00000070: 1a79 69bf 5234 1e3f deb9 27bf 8284 4d3f
00000080: d5d4 293f cc2f 83bf f953 e53e a628 bd3e
00000090: bd34 613f 11c2 153f 916a 2ebf f89e 0e3f
000000a0: c0e0 85bf de6f 463f bc78 183f 2f61 24bf
000000b0: 3036 363f b44f 423f 8892 353f 401e cd3e
000000c0: fea1 58bf 0f38 a73e c3f9 97bf 7bce 0b3f
000000d0: 3694 9b3e 7420 7ebf fbb8 6abb a47c b93e
000000e0: 4cd7 1e3e 2f94 053f 47e4 d2be 39e1 353e
000000f0: d0b7 b03e a662 6cbf 5cc3 6ebf 0c08 133e
00000100: 3926 1cbf f7a6 28bf af87 47bf 9e1c 6fbf
00000110: a50f 8d3f 2e19 0dbf 5a33 d93e 8b7a 5ebf
00000120: 96f3 cebe 77c6 7f3e 4db1 17bf 23df 20bf
00000130: 55d6 9cbe 1e2e 3ebf eba9 ff3e 2f81 4cbf
00000140: ea2d 8ebf eed7 a03e a362 323f ce97 71bf
00000150: 5155 d33e b879 903e 9fe2 183f 4087 af3e
00000160: 1498 5abf 2093 503e 375f 48bf c6de 403f
00000170: ed23 5f3f 5c88 72bf 506f b73d 5a6b b03e
00000180: 2eac 563f e7a4 f43e a5f7 72bf 0164 113f
0.32939762 -0.70404536 -0.81169695 0.19985525 -0.7078336 -0.87085503 -0.46086475 -0.94911224
0.5273148 -0.7042778 -1.0310141 0.37152603 0.86760706 -0.4289016 0.48970494 0.9582367
0.99419236 0.29168925 -0.6588156 0.6922547 -0.82392925 0.4533142 0.8164089 -0.8249089
0.30102333 0.74855 0.943419 0.26354083 -0.9120041 0.61798584 -0.65517986 0.80280316
0.6634038 -1.0248961 0.4479063 0.36945075 0.879711 0.58499247 -0.6813136 0.5571132
-1.0459213 0.77514446 0.59559226 -0.6421079 0.71176434 0.7590287 0.70926714 0.4006214
-0.8462218 0.32659957 -1.1873096 0.5461194 0.30386513 -0.9926827 -0.0035815823 0.36227906
0.15511817 0.52179235 -0.41189787 0.17761697 0.34515238 -0.92338026 -0.93266845 0.14358538
-0.60995823 -0.6587977 -0.7794141 -0.9340304 1.1020399 -0.55116546 0.4242199 -0.86905736
-0.40420216 0.24978052 -0.59254915 -0.6284048 -0.30632272 -0.7428912 0.49934325 -0.7988462
-1.1107762 0.3141474 0.6968176 -0.9437226 0.4127603 0.28217864 0.59720796 0.34282875
-0.853883 0.20368624 -0.78270286 0.75339925 0.87164193 -0.9473932 0.08956778 0.34456903
0.83856475 0.4778206 -0.94909126 0.5679322

multiple_layers.4.bias f4 [10]
00000000: 5a7d d13e 7b4d d1be 8a14 a43d 3b44 f5bd
00000010: 3c75 adbd 9667 ccbe cf65 183c afb4 233e
00000020: 3a6c cfbd e73f 0fbe
0.40915948 -0.40879425 0.0801173 -0.119759046 -0.08469626 -0.3992278 0.009301617 0.15986894
-0.101280645 -0.1398922

multiple_layers.6.weight f4 [10, 10]
00000000: ad75 3b3f 69c5 67bf 3a30 51bf 4fb9 47bf
00000010: fcd5 57bf 4a1b 64be 932c 253f 9afd b73e
00000020: d0d4 b4bd 959a 17bf 7bfd f83e 55c2 54bf
00000030: ef05 26bf 0443 3cbf 94f2 5cbf 491b 94bd
00000040: 987a 713f 9b5e ad3e 7df2 a9be eee8 37bf
00000050: 2c60 073f 937a 31bf dac8 76bf 6152 01bf
00000060: 23eb 62bf bcb4 aebe 6b0f 853f 12fb b83e
00000070: e558 9cbe 1947 5bbf f5dc 5dbf ed92 373f
00000080: 0bf3 3f3f 2f57 c83e ec09 1f3f 567a c83e
00000090: 9387 5abf 4b91 1abf 8b9d 283e fdcb 143f
000000a0: 03c2 193f 0c79 6cbf 9de5 c0be 72f7 fcbe
000000b0: 928a dfbe 754c 85be a1bb 5d3f 215f d93e
000000c0: ced4 14bf 8ca1 1abf d6d1 e43e ed58 05bf
000000d0: 9677 27bf 544f 0ebf d70a 22bf 4a41 c9be
000000e0: 6971 813f 58ab 8b3e d140 34bf 471f fabe
000000f0: 8fbb b23e 35c4 71bf ec30 70bf 8953 fcbe
00000100: 3af5 5cbf 0f4d 7c3b c50e 533f 41e4 2d3f
00000110: e0b0 18bf 49a1 f3be d7e3 403f 199e 28bf
00000120: 8bd3 75bf 0515 51bf 3470 52bf a551 cebd
00000130: b6fe 893f 44cb 6a3e 414b 92be 5362 b7be
00000140: 2806 64bf 99c1 943e e68f 383f 0b49 453e
00000150: 4916 b33e cf57 fb3e 454d 64bf b714 12bf
00000160: b5b9 ca3e f292 2c3f f5d3 13bf bd31 6b3e
00000170: d712 0f3f 53ec 0c3f 7196 2e3f 37d3 0d3e
00000180: ac18 74bf 4b15 31bf ec7f 1e3f 4774 3d3f
0.73226434 -0.905356 -0.8171421 -0.78017133 -0.8431089 -0.22276035 0.6452114 0.3593567
-0.08829653 -0.5922025 0.4863089 -0.8310903 -0.64852804 -0.7353976 -0.86307645 -0.07231767
0.9432769 0.3386124 -0.33192816 -0.718398 0.5288112 -0.6932766 -0.96400225 -0.50516325
-0.8864004 -0.34122264 1.039533 0.3612905 -0.3053657 -0.8565536 -0.8666528 0.71708566
0.7498023 0.39129016 0.62124515 0.39155835 -0.8536312 -0.6037795 0.16466348 0.5812376
0.60061663 -0.923722 -0.3767518 -0.49407536 -0.43660408 -0.26034895 0.86614424 0.4245539
-0.58137214 -0.6040275 0.44691342 -0.52088815 -0.6541685 -0.55589795 -0.6329779 -0.39307624
1.0112735 0.27279162 -0.704114 -0.48851988 0.3490872 -0.94440013 -0.9382465 -0.49282482
-0.86311686 0.003849808 0.8244441 0.6792641 -0.5964489 -0.47583988 0.75347656 -0.6586624
-0.96025914 -0.816727 -0.8220246 -0.10074166 1.0780857 0.22929102 -0.2857304 -0.35817203
-0.89071894 0.29053953 0.7209457 0.19266145 0.3497794 0.4909043 -0.89180404 -0.5706286
0.39594808 0.6741172 -0.57745296 0.22968192 0.5588812 0.550481 0.68198305 0.13850103
-0.95350146 -0.69173115 0.61913943 0.7400555

multiple_layers.6.bias f4 [10]
00000000: 08b2 af3e 713f a23e bc22 9d3e 44e1 d0be
00000010: a064 33bd b07c cf3e 6789 af3e c627 cb3d
00000020: 62b5 19be 53b0 90be
0.34315515 0.31689027 0.30690563 -0.40796864 -0.043797135 0.40524817 0.34284517 0.099196956
-0.15010598 -0.28259525

output_layer.weight f4 [1, 10]
00000000: 74ae 65bf f354 6bbf e8f4 16bf 5f67 963f
00000010: 9af0 5bbf da14 6bbf 76c8 56bf 8f0f 7cbf
00000020: cfc6 833f edff 863f
-0.8971932 -0.919265 -0.5896745 1.1750296 -0.85914004 -0.9182869 -0.8389963 -0.9846124
1.0295047 1.0546852
