seismic_model2.pth (torch, 3215 bytes, 6 tensors)

hidden_layer_1.weight f4 [12, 18]
0	0xbea36eb3	-0.31920394
1	0x3da752bf	0.081700794
2	0xbf9995e5	-1.1998869
3	0xbd828d42	-0.06374599
4	0xbfcd71ed	-1.6050392
5	0x3f873b33	1.0564941
6	0x3f4235e8	0.75863504
7	0x4024f6f9	2.577574
8	0xc027c19d	-2.6211922
9	0xc02414d9	-2.5637724
10	0xc00bb1dc	-2.1827307
11	0x3f22e1a7	0.6362557
12	0x41c45530	24.541595
13	0x41fb9914	31.449745
14	0x41f23a04	30.278328
15	0x41f9d191	31.227327
16	0x3fa58067	1.292981
17	0x4000c418	2.0119686
18	0xbe5a128e	-0.2129614
19	0x3e939a30	0.28828573
20	0xbfa34dff	-1.2758178
21	0xbe9ae05b	-0.30249295
22	0xbfd3cc59	-1.6546737
23	0x3f2c0319	0.67192227
24	0x3f6a9a38	0.9164157
25	0x402b1eb8	2.67375
26	0xc021a79b	-2.5258548
27	0xc0286f8e	-2.6318088
28	0xc0226be7	-2.5378358
29	0x3f4bcb97	0.7960753
30	0x41e0b892	28.090122
31	0x41f26fbd	30.30456
32	0x41e9935b	29.19695
33	0x41eef45b	29.869314
34	0x3eee754e	0.4657387
35	0x3f92e89a	1.1477234
36	0xbec375cd	-0.38175812
37	0x3d45c2c2	0.04828144
38	0xbfa38f63	-1.2778133
39	0xbeda1d1d	-0.42600337
40	0xbfb8851d	-1.4415623
41	0x3f2b1d81	0.66841894
42	0x3f713442	0.94220364
43	0x402117cf	2.5170782
44	0xc020bc52	-2.5114942
45	0xc0161a57	-2.3453577
46	0xc00c432d	-2.1916
47	0x3f4833a9	0.7820383
48	0x41c440b8	24.5316
49	0x41fac05a	31.343922
50	0x41f347ab	30.409994
51	0x41f840cd	31.031641
52	0x3f4283ff	0.7598266
53	0x3ffa12a7	1.9536942
54	0xbe1ab765	-0.15109022
55	0x3e4dfc7e	0.2011585
56	0xbfaee606	-1.3663948
57	0xbed34dc8	-0.4127028
58	0xbfb32c13	-1.3997825
59	0x3f3b9935	0.7328065
60	0x3f52fd5d	0.8241785
61	0x402adbe1	2.6696703
62	0xc01927e9	-2.393061
63	0xc01a4e32	-2.4110227
64	0xc0168bfe	-2.3522944
65	0x3f5d91cb	0.8655059
66	0x41fbefd3	31.492102
67	0x41ef8522	29.940006
68	0x41e65c1f	28.794981
69	0x41ea53b4	29.29087
70	0x3e6333fa	0.22187796
71	0x3f606182	0.87648785
72	0xbe7c18eb	-0.2461888
73	0x3e067db1	0.13133885
74	0xbfa452ad	-1.2837731
75	0xbf5de6dc	-0.8668039
76	0xbfabf969	-1.3435489
77	0x3f52e409	0.82379204
78	0x3f89f541	1.077797
79	0x4034d16b	2.8252819
80	0xc0255da1	-2.5838397
81	0xc00bc6c3	-2.1840065
82	0xc01d240b	-2.455325
83	0x3f2c2150	0.6723833
84	0x41f9b1fd	31.211908
85	0x41edb98c	29.7156
86	0x41e710c2	28.883183
87	0x41ebfc5f	29.498228
88	0x3f248ba3	0.6427557
89	0x3fa045dd	1.252132
90	0xbec422f2	-0.3830791
91	0x3dd526e4	0.104078084
92	0xbf9d4d96	-1.2289302
93	0xbedd9f13	-0.43285426
94	0xbf9efeb1	-1.2421476
95	0x3f7bf1d3	0.9841587
96	0x3f47962d	0.77963525
97	0x40211f80	2.5175476
98	0xc0142342	-2.314652
99	0xc0253a68	-2.5816898
100	0xc0122ac5	-2.2838604
101	0x3f1c84b6	0.6114
102	0x41c3cd56	24.475262
103	0x41faafa3	31.33576
104	0x41f170ec	30.180138
105	0x41f6e33b	30.860952
106	0x3f6012fe	0.8752898
107	0x400722b6	2.1114936
108	0xbea60b9f	-0.3243074
109	0x3e77e2fe	0.24207684
110	0xbf9c168c	-1.2194381
111	0xbf1227dd	-0.57092077
112	0xbfa4fb1c	-1.2889132
113	0x3f64f630	0.8943815
114	0x3f6a739b	0.9158265
115	0x403522e6	2.830255
116	0xc025fa1e	-2.593391
117	0xc0080fdc	-2.125968
118	0xc005c7e4	-2.0903254
119	0x3f1eb6af	0.61997503
120	0x41f7c61d	30.971735
121	0x41e9230b	29.14211
122	0x41d87f66	27.062206
123	0x41e39922	28.449772
124	0x3f1ed4e2	0.62043583
125	0x3f9c95c8	1.223321
126	0xbe66ab29	-0.2252623
127	0x3e66fe72	0.22558
128	0xbf9eac4f	-1.2396334
129	0xbf564123	-0.8369314
130	0xbfc99759	-1.5749313
131	0x3f1fba69	0.62393814
132	0x3f277aa0	0.65421486
133	0x4023c283	2.558747
134	0xc01b1be4	-2.4235773
135	0xc01f05be	-2.4847255
136	0xc004854e	-2.0706363
137	0x3f32874e	0.6973771
138	0x41e22da5	28.272287
139	0x41f42d87	30.52223
140	0x41e8ceb6	29.100933
141	0x41eef8d3	29.871496
142	0x3e8b1908	0.27167535
143	0x3fb37606	1.4020393
144	0xbe5c26c5	-0.21499164
145	0x3e9b3e69	0.30321053
146	0xbfa9121b	-1.320865
147	0xbec28f85	-0.38000122
148	0xbfca7b0c	-1.5818801
149	0x3f77060b	0.96493596
150	0x3f68fbb1	0.9100905
151	0x40359f64	2.8378534
152	0xc023322e	-2.5499377
153	0xc01de144	-2.4668741
154	0xc0046ff3	-2.0693328
155	0x3f1b96a9	0.60776764
156	0x41f97b36	31.185162
157	0x41f01fa1	30.015444
158	0x41e91504	29.135262
159	0x41ee5caa	29.795246
160	0x3ee56ccd	0.4480957
161	0x3f9f3e9b	1.2440981
162	0xbe87094f	-0.2637429
163	0x3e2727fd	0.16323848
164	0xbf9f2258	-1.2432356
165	0xbf3927af	-0.7232618
166	0xbfc9d97b	-1.5769495
167	0x3f6e7370	0.93144894
168	0x3f3ba689	0.7330099
169	0x4022ea4f	2.545551
170	0xc02226a4	-2.5336084
171	0xc00bd741	-2.185013
172	0xbffe8ce0	-1.9886742
173	0x3f241f71	0.64110476
174	0x41d4cd09	26.600115
175	0x41f78199	30.93828
176	0x41ecd1dc	29.60247
177	0x41f51885	30.636972
178	0x3f07fa06	0.5311588
179	0x3fd17ba8	1.6365862
180	0xbeb4a488	-0.35281777
181	0x3e1aa280	0.15101051
182	0xbfa13030	-1.2592831
183	0xbefef10f	-0.49793288
184	0xbf9dfb21	-1.2342263
185	0x3f880392	1.062609
186	0x3f44e1da	0.7690712
187	0x40262aa8	2.5963535
188	0xc0260b9b	-2.5944583
189	0xc020e6a7	-2.514078
190	0xc00e8661	-2.2269518
191	0x3f38defe	0.7221526
192	0x41d5c26c	26.719933
193	0x41f2d9b9	30.35631
194	0x41ec2d1b	29.522024
195	0x41f15983	30.168707
196	0x3f135427	0.5755028
197	0x3fdbca3a	1.717109
198	0xbb83a302	-0.004017235
199	0x3e800526	0.25003928
200	0xbf9f6081	-1.2451326
201	0xbf30c86b	-0.69055814
202	0xbfce96fa	-1.6139824
203	0x3f70ced0	0.9406557
204	0x3f5d59ae	0.86464965
205	0x40361bb7	2.8454416
206	0xc030779c	-2.7573004
207	0xc01f7594	-2.4915514
208	0xc02b093d	-2.6724389
209	0x3f338d76	0.7013773
210	0x42016ee0	32.358276
211	0x41ea96ca	29.323627
212	0x41ddd4a8	27.728836
213	0x41e487fb	28.566397
214	0x3f1892d4	0.5959904
215	0x3fab8da3	1.3402599

hidden_layer_1.bias f4 [12]
0	0x3f2291fd	0.6350401
1	0x3f2d209a	0.6762787
2	0x3f38bc05	0.72161895
3	0x3f0b64d5	0.5445073
4	0x3f2e2287	0.68021435
5	0x3f007168	0.50173044
6	0x3ee2ba48	0.44282746
7	0x3efb04ce	0.49027103
8	0x3f1127d4	0.567014
9	0x3efe85b3	0.4971138
10	0x3f17cf12	0.5930034
11	0x3f1625ec	0.58651614

hidden_layer_2.weight f4 [2, 12]
0	0x3fd90715	1.6955286
1	0x3f9c3700	1.2204285
2	0x3fcdc077	1.6074361
3	0x3f8985e1	1.0743982
4	0x3f9b5c80	1.2137604
5	0x3fcbaafa	1.5911553
6	0x3f8559e9	1.0418063
7	0x3fa25072	1.26808
8	0x3fb4fed2	1.4140265
9	0x3fb59a79	1.4187766
10	0x3fa1ae1a	1.2631257
11	0x3f748445	0.9551433
12	0x3fcb95fd	1.5905148
13	0x3fae160c	1.3600478
14	0x3fc8c7d2	1.568598
15	0x3fa34ebc	1.2758403
16	0x3f8f7a92	1.120928
17	0x3fac144c	1.3443694
18	0x3f32ceb6	0.69846666
19	0x3f8eee11	1.1166402
20	0x3f850fe3	1.0395473
21	0x3fa17195	1.2612787
22	0x3fb4e798	1.4133177
23	0x3f8d2012	1.1025412

hidden_layer_2.bias f4 [2]
0	0xbfef1a21	-1.8679849
1	0xbfd90d4f	-1.6957186

output_layer.weight f4 [2, 2]
0	0xc019b91c	-2.4019232
1	0xbff58396	-1.9180782
2	0x400da36a	2.213099
3	0x3ff2a79e	1.8957403

output_layer.bias f4 [2]
0	0xbe951f96	-0.2912566
1	0x3ed09abd	0.40743056
