seismic_model.pth (torch, 5195 bytes, 8 tensors)

hidden_layer_1.weight f4 [20, 18]
0	0x3efe1052	0.49621826
1	0x3f192a4d	0.5983017
2	0x3f15a124	0.58449006
3	0x3ee9ee28	0.4568951
4	0x3e872b03	0.26400003
5	0x3f29d199	0.66335446
6	0x3f2c5a85	0.6732562
7	0x3ecd8dc4	0.4014722
8	0x3ea74dd4	0.32676566
9	0x3eb65915	0.3561484
10	0x3e1b4f4c	0.15166968
11	0xbd9b66d2	-0.07587971
12	0x3e8c4f54	0.27404273
13	0xbe03a230	-0.12854838
14	0x3e54402d	0.20727606
15	0xbb50f800	-0.00318861
16	0x3ea74dd2	0.3267656
17	0x3ec29516	0.3800437
18	0x3eb638ad	0.35590115
19	0x3ea9170d	0.330254
20	0x3f2f88ac	0.6856792
21	0x3ec36bcd	0.38168183
22	0x3e9d5b6a	0.30733806
23	0x3f3d3a75	0.73917323
24	0x3f0b91ec	0.54519534
25	0x3d27e625	0.040990967
26	0x3ea7679e	0.3269624
27	0x3ecb22f6	0.3967511
28	0x3e106db1	0.14104344
29	0x3e47b8ee	0.19504139
30	0x3d6160d1	0.055023972
31	0x3e3b5a03	0.18296055
32	0x3e433f07	0.19067012
33	0xbdb6c510	-0.089243054
34	0x3e656703	0.22402577
35	0xbd36660f	-0.044530924
36	0x3f168d85	0.5880969
37	0x3e2a8d76	0.16655526
38	0x3ebb02d4	0.36525595
39	0x3da3fb2a	0.0800689
40	0x3e8ad84b	0.27118143
41	0x3e947352	0.28994232
42	0x3f281804	0.65661645
43	0x3e0b41eb	0.13599364
44	0x3e84f164	0.25965416
45	0x3e6cbf66	0.23119888
46	0x3e2a66e4	0.16640812
47	0x3e4e682a	0.20156923
48	0x3e8a703f	0.27038762
49	0xbde31672	-0.110882655
50	0xbdccde92	-0.100033894
51	0x3e269063	0.16266017
52	0xbc6c66bc	-0.014428791
53	0x3eb9ce8a	0.3629039
54	0x3eea1d67	0.45725557
55	0x3e8e9b54	0.2785288
56	0x3f1adeeb	0.60496396
57	0x3ef2aa81	0.4739571
58	0x3f270d48	0.6525464
59	0x3f0a2ce0	0.53974724
60	0x3ea3bf41	0.31981853
61	0x3eccd5c4	0.4000684
62	0x3ede466f	0.43413112
63	0x3eb88bd6	0.36044186
64	0x3ea5b469	0.32364205
65	0x3e928a64	0.2862121
66	0x3da986e2	0.0827768
67	0x3db8c1f6	0.0902137
68	0xbe249d22	-0.16075566
69	0x3e52c581	0.20583154
70	0xbcb907ed	-0.022586787
71	0x3eb5b9e2	0.3549338
72	0x3ed2fc57	0.41208145
73	0x3f34f3f3	0.70684737
74	0x3eab54b6	0.33463067
75	0x3e95fa2f	0.29292437
76	0x3eee557d	0.46549597
77	0x3ec73541	0.38907817
78	0x3f191181	0.59792334
79	0x3de6e469	0.112740345
80	0xbe36aed1	-0.17840125
81	0xbd2a7af2	-0.041621156
82	0xbe36c88b	-0.17849939
83	0x3e92febd	0.28709975
84	0xbe2b8f11	-0.16753794
85	0x3d805d32	0.062677756
86	0x3e6376ed	0.22213335
87	0xbd99bad0	-0.07506335
88	0x3e8909f4	0.26765406
89	0x3e02fd45	0.12791927
90	0x3f1df047	0.6169476
91	0x3ec15ad4	0.3776461
92	0x3eb7208c	0.3576702
93	0x3ddd5bbd	0.10808513
94	0x3f15005e	0.58203685
95	0x3f09a9c7	0.53774685
96	0x3f1d1c51	0.6137133
97	0x3ead45fd	0.3384246
98	0x3eb64911	0.3560262
99	0x3e961c58	0.293185
100	0x3f001557	0.5003256
101	0x3ea4628c	0.32106435
102	0x3da2873d	0.07935951
103	0xbe40548a	-0.18782249
104	0x3e2c5635	0.1682976
105	0x3ddd8dc2	0.10818054
106	0x3e961776	0.29314774
107	0x3e2cb01a	0.16864052
108	0x3d895cb7	0.06707137
109	0x3e574b55	0.2102483
110	0x3e041ad5	0.1290086
111	0x3e930c05	0.28720108
112	0x3e497a65	0.19675596
113	0x3f14527f	0.5793838
114	0x3f0aa36d	0.5415562
115	0x3ee4ff61	0.4472609
116	0xbd23da09	-0.040002856
117	0xbe813d39	-0.25242022
118	0xbdce13fb	-0.10062405
119	0x3e33506d	0.17511149
120	0xbe0cd430	-0.13752818
121	0xbe34a7fb	-0.17642204
122	0x3e17481d	0.14773603
123	0x3e2fa887	0.17154132
124	0x3cfd9d58	0.030958816
125	0x3e1a23bd	0.15052696
126	0x3f1c8d94	0.6115353
127	0x3ed64cb3	0.41855392
128	0x3f1542e8	0.58305216
129	0x3ef67dc0	0.48142815
130	0x3ea0ea28	0.31428647
131	0x3f4c354d	0.7976883
132	0x3f3004a6	0.6875709
133	0x3ec4c6ad	0.38432828
134	0x3d179680	0.037008762
135	0x3de3cf36	0.11123507
136	0x3dec3c3d	0.11534927
137	0x3c82f578	0.01598619
138	0x3e0c5166	0.13702926
139	0xbddf2912	-0.108965054
140	0xbd7c6ec8	-0.061629087
141	0xbe4eda70	-0.20200515
142	0xbc8783ed	-0.0165424
143	0x3c2af7f6	0.010435095
144	0x3f0afcab	0.5429179
145	0x3e5fa7cb	0.21841352
146	0x3f153dce	0.5829743
147	0x3dfbf7a8	0.12303096
148	0x3ee81f61	0.4533644
149	0x3ed3db29	0.41378143
150	0x3f15ec68	0.5856385
151	0x3e3d203a	0.18469325
152	0x3ef94ef0	0.48693037
153	0x3e86aab7	0.2630212
154	0x3eec9147	0.46204588
155	0x3d419856	0.04726442
156	0xbe18821f	-0.14893387
157	0x3e2d5f4b	0.16930883
158	0x3e050651	0.12990691
159	0xbd124ae8	-0.035715967
160	0x3dcc1a12	0.0996591
161	0xbd1ce548	-0.038304597
162	0x3efe6bb7	0.49691555
163	0x3f076034	0.5288117
164	0x3f06dc51	0.52679926
165	0x3ee2903b	0.44250664
166	0x3eeff7a4	0.46868622
167	0x3eb24077	0.34814808
168	0x3f13fc85	0.5780719
169	0x3e3f5ed2	0.18688515
170	0x3ee2fea6	0.44334906
171	0x3dfafa96	0.12254827
172	0x3e230489	0.15919699
173	0x3d8cef9d	0.0688164
174	0x3e8ca817	0.27471992
175	0xbc03c100	-0.00804162
176	0xbdcfb9fa	-0.10142894
177	0x3af5ea00	0.0018761754
178	0x3e19b885	0.15011795
179	0x3dd805ee	0.10548006
180	0x3e98678d	0.29766503
181	0x3ed97fd7	0.42480347
182	0x3ce013d4	0.027353205
183	0xbd0f456b	-0.03497831
184	0x3eaf6312	0.34255272
185	0x3f1899ba	0.5960957
186	0x3e8f40cd	0.27979127
187	0x3eaa753c	0.33292568
188	0x3d062488	0.032749683
189	0xbc701a64	-0.0146547295
190	0x3d2936ae	0.041311912
191	0xbd4d43a7	-0.050113346
192	0x3e39ac26	0.18132076
193	0xbd751560	-0.059834838
194	0x3e38f277	0.18061243
195	0xbcb26fc0	-0.021781802
196	0xbd48dfe6	-0.04904165
197	0x3e5106c4	0.20412737
198	0x3eac72c9	0.33681324
199	0x3f279710	0.6546488
200	0x3ef47cfd	0.47751608
201	0x3eb38fc0	0.3507061
202	0x3f029079	0.510017
203	0x3f160203	0.5859682
204	0x3ed15c1a	0.4089058
205	0x3e34bf26	0.17651042
206	0xbe97b586	-0.2963068
207	0x3c450587	0.012025244
208	0xbe1bc89e	-0.15213248
209	0xbe3c0059	-0.18359508
210	0xbd1061cb	-0.035249513
211	0xbdf16122	-0.11786105
212	0xbd92b906	-0.07164197
213	0xbd062048	-0.03274563
214	0x3e0a4f39	0.13506784
215	0x3e9ee285	0.31032196
216	0x3efa4449	0.48880222
217	0x3eeb6a37	0.45979473
218	0x3ee563b8	0.44802642
219	0x3f08d78f	0.53453916
220	0x3f161423	0.58624476
221	0x3ebc97af	0.36834475
222	0x3f2906b1	0.66025835
223	0x3ea2d666	0.31804198
224	0x3e455eda	0.19274464
225	0xbc0d3fc6	-0.008621162
226	0x3e4f810c	0.20264071
227	0x3e6fc590	0.23415208
228	0x3e15cdc8	0.1462928
229	0x3dd1067a	0.102063134
230	0x3e53946f	0.20662092
231	0xbe1fd1b5	-0.1560734
232	0x3e89abb2	0.26888806
233	0x3e12417c	0.14282793
234	0x3ebd77b5	0.37005392
235	0x3f11473b	0.56749314
236	0x3ede89bb	0.43464455
237	0x3e6d9181	0.23200037
238	0x3ee28c70	0.4424777
239	0x3f4661d6	0.77493036
240	0x3f2b5b4e	0.66936195
241	0x3ec4929c	0.38393104
242	0x3e677f6e	0.22607204
243	0x3ed44ed3	0.41466388
244	0x3eade812	0.33966118
245	0x3e8ccf1b	0.2750176
246	0xbd39f039	-0.04539511
247	0x3d9e834e	0.07739888
248	0x3e42144f	0.1895306
249	0xbd6a5194	-0.057206705
250	0xbd22719d	-0.03965913
251	0x3dc09a01	0.09404374
252	0x3e1697c0	0.14706326
253	0x3db9e33b	0.09076544
254	0x3ebef548	0.3729651
255	0x3e3f9756	0.18710074

hidden_layer_1.bias f4 [20]
0	0x3eb0fdce	0.34568638
1	0x3edbd1f1	0.4293361
2	0x3e96649b	0.2937363
3	0x3ecc8839	0.3994768
4	0x3f8b0da2	1.0863535
5	0x3f177c92	0.59174454
6	0x3f4e3969	0.8055635
7	0x3f658356	0.8965353
8	0x3f02bc67	0.5106873
9	0x3f1a5cd3	0.6029789
10	0x3efc5460	0.49283123
11	0x3f3c67df	0.73595995
12	0x3f54c863	0.83118266
13	0x3f15a15c	0.5844934
14	0x3f089cad	0.5336407
15	0x3f622fb4	0.8835404
16	0x3f3095eb	0.68978757
17	0x3f0f167a	0.5589367
18	0x3f173556	0.5906576
19	0x3edd72a1	0.43251517

hidden_layer_2.weight f4 [10, 20]
0	0x3ee63284	0.44960415
1	0x3f140727	0.57823414
2	0x3f31a5e7	0.6939377
3	0x3ea90c27	0.33017084
4	0x3f227faf	0.6347608
5	0x3f1dcb02	0.6163789
6	0x3edae1ee	0.42750496
7	0x3f145c2b	0.5795314
8	0x3ec4f697	0.38469383
9	0x3f433999	0.7625976
10	0x3ecd61db	0.4011372
11	0x3ec91d17	0.39280006
12	0x3f27ad3a	0.654987
13	0x3f090f32	0.5353881
14	0x3ee1b51a	0.44083482
15	0x3f1b3b78	0.6063762
16	0x3f1ad0ff	0.6047515
17	0x3f1b461d	0.6065386
18	0x3f0eb0ca	0.5573851
19	0x3f1df990	0.6170893
20	0xbdcee73d	-0.10102699
21	0xbe3d0063	-0.18457179
22	0xbe11a172	-0.14221743
23	0xbe7a715c	-0.24457306
24	0x3e016524	0.12636238
25	0xbe38d1ea	-0.18048826
26	0x3df4ed5d	0.11959336
27	0xbd7d1327	-0.061785843
28	0xbe40ba1b	-0.18820994
29	0xbe1a70cc	-0.15082091
30	0x3d791c28	0.060817868
31	0x3d4c7f32	0.04992599
32	0xbd4c2b24	-0.04984583
33	0xbd9d50fd	-0.07681463
34	0x3c3d9932	0.011572169
35	0x3c650624	0.013978515
36	0xbe213281	-0.15741922
37	0xbda57296	-0.08078496
38	0xbd999494	-0.07499042
39	0xbda9fb93	-0.08299937
40	0xbe9b779a	-0.30364686
41	0x3d715c6e	0.05892604
42	0xbdf0cc19	-0.117576785
43	0x3da7e8c2	0.08198692
44	0x3d9ac984	0.07557967
45	0xbd9e401c	-0.07727072
46	0xbdd97820	-0.10618615
47	0x3c83289b	0.016010573
48	0xbcda0b5b	-0.026616743
49	0xbe8c2684	-0.27373135
50	0xbd509706	-0.050925277
51	0x3d468c85	0.048473854
52	0xba6bd2de	-0.000899596
53	0xbe17b870	-0.14816451
54	0xbe4b90b0	-0.19879413
55	0xbea477d0	-0.3212266
56	0x3db6acea	0.089196995
57	0xbe8ffbef	-0.28121898
58	0xbdb5113c	-0.08841178
59	0xbea08de9	-0.3135827
60	0x3f306bb7	0.6891436
61	0x3ee31c22	0.443574
62	0x3eda7b08	0.4267199
63	0x3ec6a9e3	0.38801488
64	0x3f1d3e81	0.614235
65	0x3f1f5719	0.62242275
66	0x3f0c0250	0.5469103
67	0x3f1c201d	0.609865
68	0x3f2c1e06	0.6723331
69	0x3f1fb790	0.6238947
70	0x3e96b01b	0.29431233
71	0x3ee1b66c	0.4408449
72	0x3f0aeccd	0.5426758
73	0x3f1e26cf	0.6177797
74	0x3ed35d47	0.41282102
75	0x3eea8158	0.45801806
76	0x3e94af3c	0.29039943
77	0x3ef1a331	0.47194818
78	0x3f36b124	0.71364045
79	0x3f228bd4	0.6349461
80	0x3ec49a38	0.3839891
81	0x3f15002c	0.5820339
82	0x3f0d24a0	0.5513401
83	0x3f1c435c	0.6104028
84	0x3f228602	0.6348573
85	0x3f3ddae7	0.74162143
86	0x3f469f95	0.7758725
87	0x3f2f52d4	0.6848576
88	0x3f33e1ac	0.7026622
89	0x3ee26981	0.44221118
90	0x3ec96b7d	0.3933982
91	0x3ecebe68	0.40379643
92	0x3f42b5f2	0.76058877
93	0x3f044bb1	0.51677996
94	0x3ec00e56	0.37510937
95	0x3f0a064a	0.53915846
96	0x3ed8fef4	0.42382014
97	0x3eb804a9	0.35941055
98	0x3f0c49fc	0.5480039
99	0x3f03b45c	0.5144708
100	0x3ecb2015	0.39672914
101	0x3e91ca67	0.28474733
102	0x3eb2b07d	0.34900275
103	0x3edb0849	0.4277976
104	0x3ef72586	0.48270816
105	0x3eb5f2bc	0.35536754
106	0x3ec874ee	0.3915171
107	0x3f397b05	0.7245334
108	0x3f2206ae	0.6329144
109	0x3f094757	0.5362448
110	0x3ea48a21	0.32136634
111	0x3ed2f09c	0.41199195
112	0x3efb0645	0.4902822
113	0x3f2e87db	0.6817605
114	0x3f089cc9	0.53364235
115	0x3f29c0e7	0.6630997
116	0x3f0f2bff	0.5592651
117	0x3ebe6d95	0.3719298
118	0x3ef4f03b	0.4783953
119	0x3eb2c2d4	0.34914267
120	0x3eb94612	0.36186272
121	0x3f18db74	0.5970986
122	0x3ed0de31	0.4079452
123	0x3f26202b	0.64892834
124	0x3f355689	0.7083517
125	0x3eb5a940	0.3548069
126	0x3f1a596c	0.60292697
127	0x3edc676c	0.43047655
128	0x3f2b250e	0.66853416
129	0x3f0f4677	0.55966896
130	0x3f273fde	0.6533183
131	0x3ef8cb5e	0.48592657
132	0x3ee07a9c	0.43843544
133	0x3f425ee9	0.7592607
134	0x3efbb586	0.4916193
135	0x3ec48287	0.38380834
136	0x3ed51dcb	0.41624293
137	0x3f25a2a6	0.64701307
138	0x3f2c455c	0.67293334
139	0x3f04a8c3	0.5182001
140	0x3f2d2595	0.6763547
141	0x3f331fc5	0.6997035
142	0x3f08ee63	0.5348875
143	0x3e8ffa37	0.28120586
144	0x3f0cd4ae	0.55012023
145	0x3eec1a9a	0.46114045
146	0x3f31cc46	0.6945232
147	0x3f02569e	0.5091342
148	0x3f144781	0.57921606
149	0x3f0aa510	0.54158115
150	0x3ead6dd7	0.33872864
151	0x3eec97eb	0.46209654
152	0x3ecf2300	0.4045639
153	0x3f1d2a0d	0.6139229
154	0x3f2fb3ab	0.68633527
155	0x3f26c59f	0.65145296
156	0x3f2bb376	0.6707071
157	0x3f1fa235	0.62356883
158	0x3f16f29f	0.5896396
159	0x3f29cb47	0.663258
160	0x3ee427ed	0.4456171
161	0x3f094308	0.53617907
162	0x3f261374	0.64873433
163	0x3ec4d79f	0.38445756
164	0x3f15761a	0.58383334
165	0x3efc0ca2	0.49228388
166	0x3f0d5e44	0.5522196
167	0x3f17224f	0.59036726
168	0x3f3a85db	0.728605
169	0x3ef7d916	0.4840781
170	0x3ebea2b9	0.37233523
171	0x3f2d792a	0.67763007
172	0x3f083eda	0.53220904
173	0x3f14b8cb	0.5809447
174	0x3ea3a454	0.3196131
175	0x3f4761cd	0.7788361
176	0x3f172e94	0.5905545
177	0x3f22af66	0.63548887
178	0x3ef53d1c	0.47898185
179	0x3ee037db	0.43792614
180	0x3f4123b4	0.75445104
181	0x3f415674	0.7552254
182	0x3eb74553	0.35795078
183	0x3ee4a59c	0.446576
184	0x3efbb650	0.4916253
185	0x3efda514	0.49540007
186	0x3f21fe67	0.6327881
187	0x3f0a32d7	0.53983825
188	0x3eac67b6	0.33672875
189	0x3f1f9c56	0.62347925
190	0x3edb6616	0.42851323
191	0x3f127672	0.57211983
192	0x3ebfe1a4	0.37476838
193	0x3ef40510	0.47660112
194	0x3f184196	0.59475076
195	0x3f33bc96	0.70209634
196	0x3ee26708	0.44219232
197	0x3ee75da9	0.45188645
198	0x3f0ddaef	0.5541219
199	0x3ec77783	0.38958368

hidden_layer_2.bias f4 [10]
0	0x3ef9e523	0.4880763
1	0x3e62a206	0.2213212
2	0xbe37bbf7	-0.17942797
3	0x3f1daec5	0.615948
4	0x3f1c63d0	0.610898
5	0x3ecef867	0.4042389
6	0x3f1dd328	0.61650324
7	0x3e87e807	0.2654421
8	0x3ebbff51	0.36718228
9	0x3edc8be5	0.4307548

hidden_layer_3.weight f4 [2, 10]
0	0x3f623cb6	0.8837389
1	0x3eb7faf7	0.35933658
2	0x3e5ebdee	0.2175214
3	0x3edb7cbc	0.42868602
4	0x3f3b4fd5	0.7316869
5	0x3f2b193c	0.6683538
6	0x3f5883da	0.8457619
7	0x3ed953c7	0.4244673
8	0x3ef84658	0.48491168
9	0x3f61eb81	0.88249975
10	0x3f5553e2	0.8333112
11	0x3e32a81d	0.17446943
12	0x3e72bd2b	0.23704974
13	0x3f74573a	0.954456
14	0x3f685f87	0.90770763
15	0x3ee4dbba	0.44698888
16	0x3f723576	0.94612825
17	0x3f24510b	0.6418616
18	0x3f7c12a5	0.9846595
19	0x3f2a0d05	0.66426116

hidden_layer_3.bias f4 [2]
0	0x3ed65306	0.41860217
1	0x3f0e8eff	0.55686945

output_layer.weight f4 [2, 2]
0	0xbf63cb5d	-0.8898218
1	0xbf1dd38c	-0.6165092
2	0x3f1a0c16	0.6017469
3	0x3f87fc1a	1.062381

output_layer.bias f4 [2]
0	0xbfacdb3a	-1.3504403
1	0x3f988eb2	1.1918547
